checkpoint_critic.pth (torch, 170839 bytes, 5 tensors)

fcs1.weight f4 [256, 33]
00000000: 9bf6 eb3c 7d39 4dbb 72ec 8c3d 6968 e8bc
00000010: a317 d83c 4cc5 cabc dc48 313c a83f bcbc
00000020: c7c6 bd3d 9aed 95bc c154 2dbd 5b85 0bbc
00000030: cc25 943c 03c0 dcbd f463 363d 54b7 dbbc
00000040: 46d5 a2bd 28e4 2e3d 028c 3fbd d147 afbb
00000050: dd95 773b 0b35 b73c 578d 30bb 07ac 78bd
00000060: e571 133c ae65 9fbd 51b4 623d 5c6b e63b
00000070: 8dca 433d ac88 90bc b94a 86bd 64ec 82bc
00000080: ee98 c23e 4cf7 9d3c 9954 0fbe 4ddd a43d
00000090: 3d5c a23d 73b4 803c dcd8 593d 77d2 a3bb
000000a0: 0fdd 823c 8cf7 a53d 9f3d 343d 19cf 27bd
000000b0: 3538 b0bc 7a13 673d 981d 2bbd 7b06 58bd
000000c0: 1223 b5bc ff5b bf3c 7c5c 303d b801 6a3d
000000d0: 5a56 1c3d 2770 0d3d 6578 693d 5fb9 403d
000000e0: 1cec 8dbd c74f 35bc 9f86 2fbb 50b0 8ebd
000000f0: 3acb da3b 3090 a1bc d455 d5bc 5302 5ebc
00000100: 7025 c1bb d632 fabd 0a0d 8a3d 1a2a 33bd
00000110: 625e 1aba 020c a93c b7ac 403d 725f 3ebd
00000120: 0089 f3ba 0754 7e3d e48f 82bc dab1 48bd
00000130: 43f8 20bb ceca a33d 377b 683c 8843 a8bd
00000140: 2334 833e 5cf1 983b bd68 b4bd dabb e53b
00000150: 7bf1 05bb 7294 29bc bd74 563c 9c4b 4e3c
00000160: 477e 86ba 8e6b 55bc 1cb0 743d 8a80 c3bb
00000170: dce3 f23c 0e6a 923d a377 cabb 3423 7ebd
00000180: 0d0a f4bc da5b 3ebd a2d8 6ebd af0f 443d
00000190: 2761 393c f581 9f3d 55a5 983d ff01 c93c
000001a0: dfc7 aa3d bdf6 38bc 2ddc 163d ec43 403e
000001b0: 4cb6 383d 5bf8 783d 6e0a ca3c 0aeb a93c
000001c0: dcb6 60bd 4bbd 3dbd 6c46 6bbd fa12 ffbd
000001d0: 3f77 c83d 2004 ac3d 9d36 a63d a69a 06bd
000001e0: 214b edbd 0127 c53d eff3 36bd 9e30 5f3b
000001f0: e067 25bd e3bb 123d e3d7 ffbc 1dc5 06bd
00000200: c85f 41bd d3ab 2a3d 0082 6439 0edb b8bc
00000210: b9a4 d9bc 7fe8 6c3c 84a6 c93b 02b0 21bd
00000220: 915e 26b9 c541 f0bb 4472 f03b 190b 473d
00000230: b7d5 183c 61bb 893d e63e 9cbc ebff fdbc
00000240: 1a93 173c d857 35bd 03a8 283d 3bf2 0d3d
00000250: 3900 543d 83fb 623d 8996 9b3c a420 a83b
00000260: a053 f23c 29fc 7838 a0d9 113d d6ef d1bd
00000270: fae4 06bc 9746 e8bc 0e0a 063b 5c00 683d
00000280: bf87 42bd 5005 0abc e6ef 0ebe e0a0 213b
00000290: 3162 c4be bb91 403c ff2f 843d 1696 a9bd
000002a0: a7f2 f6bc 5991 9ebd 0c5c eebd f8cd 5a3b
000002b0: 85c8 2d3d 1df0 183e 6d57 8bbc cad7 823d
000002c0: 1d3e 463d b9e7 c53c 2f8e 59bd 928a 233a
000002d0: 772d 02bc 278c 0bbb 5451 6c3d 3be0 f13b
000002e0: 4bfe 52bd 2f07 55bd e2d5 b13d 0b5a 983c
000002f0: 841c ea3c 556b e33c 3702 33bd 4e6b d33d
00000300: 2272 0dbc b49e 4e3d f841 79bc 35e0 25bc
00000310: f4e7 13bd 20d0 8e3e c35a 8b3d 68a5 78bd
00000320: 2824 363d 6ab3 50bd 959f 803d f407 cbbd
00000330: 612b c33d 7058 cdbc 73da 6fbd 3a58 473d
00000340: f37f fc3c a717 08be 2f85 33bd 32d0 6cbc
00000350: 6ad0 e13c 54bb 36bb ae36 0fbd cc94 22bd
00000360: e5e9 673d 82e6 56bc 6068 bdbd fb15 803d
00000370: 8902 be3c 2be6 273d a517 753c e710 55bc
00000380: 62d6 fabc 0a19 853b 7f80 3fbc 56ee 043d
00000390: 89c9 90bb e4a5 d73c 381e 03be ba6e c73d
000003a0: 9ed6 b83c 6443 cf3d eeb3 35bd af89 873c
000003b0: 7a06 443d 7c98 303d 1c64 1a3c 7d32 2b3c
000003c0: 0dba dabc b0c2 813c 5930 d83b 61db bcbc
000003d0: b637 cebd ba74 0c3d dd60 29be 6c35 22bb
000003e0: 6edf 2cbd 531e f43c f77f 25bc fb80 adbc
000003f0: 89a4 d83c 515a ebbc 8e75 63bd 2606 c3bc
0.028804114 -0.0031314783 0.06881036 -0.0283701 0.026378458 -0.024752282 0.010820594 -0.022979572
0.092664294 -0.018301774 -0.042317156 -0.008515681 0.01808443 -0.10778811 0.044528916 -0.026820816
-0.07950835 0.042698056 -0.04676438 -0.0053491374 0.0037778534 0.02236416 -0.0026939714 -0.060710933
0.008999323 -0.07783066 0.055347744 0.007031841 0.04780059 -0.017643295 -0.06557221 -0.01598186
0.380073 0.01928296 -0.13997115 0.08050022 0.07927749 0.015711045 0.05318533 -0.0049994546
0.01597455 0.081038564 0.04400408 -0.040968988 -0.021511177 0.05641506 -0.04177627 -0.052740555
-0.02211145 0.023359297 0.04305695 0.057130545 0.03816829 0.034530785 0.056999583 0.047051784
-0.069298 -0.011066384 -0.0026783121 -0.06967223 0.0066770585 -0.019722074 -0.026041903 -0.013550359
-0.0058943555 -0.122167274 0.06740768 -0.043741323 -0.0005888698 0.020635609 0.047039714 -0.046477742
-0.0018580258 0.062091853 -0.015937753 -0.048997737 -0.0024562038 0.07997666 0.014189533 -0.082160056
0.25625715 0.004667444 -0.0880904 0.007010919 -0.0020438123 -0.0103503335 0.013089356 0.012591269
-0.0010261022 -0.013026131 0.059738263 -0.005966251 0.029649667 0.071491346 -0.0061788126 -0.06204529
-0.029789949 -0.046474315 -0.058312066 0.04786652 0.011314667 0.07788459 0.074534096 0.024537085
0.08338904 -0.011289296 0.03683107 0.1877591 0.045095727 0.060783725 0.024663176 0.020741958
-0.05486189 -0.046323102 -0.057440206 -0.12454791 0.097883694 0.08399224 0.081158854 -0.032862328
-0.11586595 0.0962658 -0.044666227 0.0034056078 -0.040382266 0.035823714 -0.031230872 -0.032902826
-0.047210485 0.04166777 0.00021792203 -0.02256539 -0.026567804 0.014459728 0.0061538834 -0.039474495
-0.00015866222 -0.007332059 0.0073378403 0.048594568 0.009328297 0.06725193 -0.019072961 -0.03100582
0.00925138 -0.044273227 0.041175853 0.034654837 0.051758025 0.05541564 0.01899268 0.005130844
0.029580891 5.936265e-05 0.035607934 -0.10250823 -0.008233303 -0.028353972 0.002045277 0.056640968
-0.04749274 -0.008424118 -0.13958701 0.002466254 -0.38356164 0.011753495 0.06454467 -0.0828058
-0.030145003 -0.077425666 -0.1163865 0.0033386927 0.04242756 0.14935346 -0.017009461 0.06388815
0.04839908 0.024158346 -0.053114112 0.0006238605 -0.00794541 -0.0021293254 0.057694748 0.0073814667
-0.051512044 -0.052008804 0.08683373 0.018597623 0.02857805 0.02776114 -0.043703284 0.10323201
-0.008633168 0.05044432 -0.015213482 -0.010124256 -0.03610988 0.27893162 0.06804421 -0.06070462
0.044468075 -0.050952353 0.06280438 -0.09913626 0.09529758 -0.025066584 -0.05855794 0.048668124
0.03082273 -0.13290273 -0.043828186 -0.0144539345 0.0275652 -0.0027882652 -0.034964256 -0.039692685
0.056619544 -0.013116481 -0.092484236 0.062541924 0.023194568 0.04099099 0.014959251 -0.013004518
-0.030619804 0.004061823 -0.011688351 0.032453857 -0.004418556 0.02632422 -0.12804496 0.09737916
0.022563275 0.101202756 -0.044361047 0.016545145 0.04785774 0.04311417 0.009423282 0.010449049
-0.026700044 0.015839905 0.0065975604 -0.023053827 -0.1006922 0.034291007 -0.16540857 -0.002475108
-0.042205267 0.029799616 -0.01010131 -0.021179667 0.026445644 -0.02872959 -0.05553203 -0.023806643

fcs1.bias f4 [256]
00000000: 3b96 afbd c318 4cbd 44e6 c13d bbd1 00bd
00000010: e5a4 1dbb d918 fcbc 8197 57be a126 f8bc
00000020: 6a8b 743d 06bc 473e 7ea8 3abe 6039 ad3d
00000030: 8309 8bbd 396e cb3d e285 6d3e c10a 373e
00000040: 0508 363c 92c2 ac3d 8a42 7cbd 596f 02be
00000050: beb6 8e3d 521e d1bd ca33 563d c9ff 353e
00000060: f0c2 8abd 9301 74bc 557a 463e 0098 7b3d
00000070: e491 0dbd 9804 febd 285d 0ebd 4e5b 4fbd
00000080: 1e64 a73d 8af2 16be 1cfc 3dbd ef7d 693d
00000090: 55d6 febd 6b72 07be 2a7d 543e c854 c33d
000000a0: fcd8 2ebe d40e 123d a6a8 823d 2c78 333e
000000b0: 390a 343e 8040 e5bc 7cc8 363e 57cf dd3b
000000c0: 21d5 213e cf35 e13d 784c 44be cec5 913d
000000d0: 4f13 7bbc 1746 b6bd ad98 b9bd 28a0 393d
000000e0: 4b71 59bb cf3b d63d 77b7 53be e61e 993d
000000f0: d4fb 91bc 267a 0abe 3218 213c 8e45 423c
00000100: c3af 35bd 18dc 09be 932c 493e af7a 25bd
00000110: 7473 7fbb dc76 95bd 8904 113e 0879 0abe
00000120: c3ad 51be 824d 303c 12f0 273d bb95 be3d
00000130: 0a1d 8abd 3f5b c1bd 9245 eabd 7ffd 0c3d
00000140: 3993 e13d 42e8 00bc 8838 11be ed30 4fbd
00000150: 0fe6 7d3b de8e ab3d 5426 3abe e17f 20be
00000160: dbcd 4cbd e417 0c3e e6bd 04bd 2422 a93d
00000170: 894b f53c 9337 d43d b8f5 143d 9a11 253b
00000180: 9586 c3bd e972 17be 0000 723c b1cc dc3d
00000190: f7e1 763d b567 b93d 7ee1 27bd 6547 d8bc
000001a0: ca8c 98bc 18cc 6abd 0d86 eebd 38ee dbbb
000001b0: e4f1 593d 8514 393d 2a4c 423e d87f 02be
000001c0: 446b 6bbe 2757 38be e75d 983d 0428 b9bd
000001d0: 82c6 16be 11ca a4bc e8ed 1d3e dcba a0bd
000001e0: bf58 f73d abfd 233e 9e62 88bd db4a 883d
000001f0: 115e 383e 43f9 873d eba8 44be d689 e6bd
00000200: b915 9abd e29f 2fbe 5094 f0bd e8af 27be
00000210: 8089 003e f681 d8bc e6d2 9f3b 34ae 363d
00000220: 3b2f 3ebd 0f2e a5bd e1ef 07be f2c9 38bd
00000230: 8fa0 a7bd 18cc 1ebb cd13 3f3d 4e4b eebc
00000240: df7c c6bd bd5d 09be 5dd8 26bc dbfc 0c3e
00000250: f4e2 333e 902c 23be aa91 29be dceb ca3a
00000260: 0f71 c93d 91d1 b2bc 428f 503d 413e 48bd
00000270: c300 3abd a94b d43d a5f5 aebd 45f3 12be
00000280: c976 cabd f338 21bd f422 d73c 9226 f63d
00000290: a84c b63d 074e 8bbd 84b0 f1bd af83 4bbd
000002a0: 0dd5 b1bd 66ff b5bd a265 413e 262a 763e
000002b0: b662 cebd 4060 913d c879 86bc 604b 623d
000002c0: ce7d 33be 0170 8bbd 082f 12bd ab10 9abd
000002d0: 898c f9bd 041b 2abc 2cf7 3bbd e20f 30be
000002e0: 3018 2b3d 3c05 6a3d 05b8 063e 897c a1bd
000002f0: 0bc1 1dbe 0990 953d 3103 aebd 257a d13d
00000300: 9a0b 563d 4118 a3bd 93fe 7c3c 3aa3 b7bd
00000310: 9a94 f7bb 879a 4a3d 5c2c 23be aaed 0b3e
00000320: 61ad 833d afcb 393e e4e6 9cbc 7aa1 1c3e
00000330: 4834 5bbd 2b04 fbbd 959a b3bd 589e 38be
00000340: 5e34 933d 91a1 d63d 56e2 10be 4a7a 39bd
00000350: dd0f f4bd 11ab 523d 764e 3fbe 0ed9 5a3d
00000360: 50ff e4bc 5aeb 09be d64e 303c 12bf 9d3d
00000370: 09ca a5bc 17c1 02be 3d19 8e3d c865 5cbe
00000380: 50ee 243e 7d20 bcbd c61a 76bc 1b76 48be
00000390: 8d45 c5bd 16d9 8f3d d36f 033d 7683 39bd
000003a0: 64ed fbbd 0d37 253e b4f1 d5bc ae81 78bd
000003b0: a757 d53d 7312 353d 866a acbd ec43 4b3d
000003c0: 2cf0 38be 106a b1bd 05eb 97bd 7bd5 59bc
000003d0: ad22 113d fdf5 5dbd acd5 013d 5cf1 8d3d
000003e0: 9671 debb 2ae9 bf3d 0398 dabb 34ec 2bbe
000003f0: 56ce 13be bbea 713d 28a5 26be de4c debd
-0.08573576 -0.049828302 0.09467748 -0.031450015 -0.0024054584 -0.030773567 -0.21053888 -0.030291857
0.059703268 0.19505319 -0.18228337 0.08458209 -0.067889236 0.09933133 0.23195603 0.17875196
0.01111031 0.08435549 -0.061586894 -0.12737788 0.06968449 -0.10210861 0.052295484 0.17773356
-0.067754626 -0.014892953 0.19382603 0.061424255 -0.03456296 -0.1240322 -0.03475681 -0.050624184
0.08173393 -0.14740959 -0.04638301 0.057004865 -0.12443224 -0.1322724 0.20750871 0.09537655
-0.1707496 0.035658672 0.063798234 0.1752631 0.17582025 -0.027984858 0.17849916 0.0067691016
0.15803958 0.10996591 -0.19169796 0.071178064 -0.015324428 -0.08900087 -0.09062324 0.045318753
-0.00331791 0.10460626 -0.20675455 0.074765965 -0.017820276 -0.13523158 0.009832429 0.011857403
-0.044357073 -0.13462865 0.1964591 -0.040400203 -0.0038978728 -0.07298061 0.14161886 -0.13522732
-0.20476441 0.010760667 0.041000433 0.093059026 -0.0674382 -0.09441232 -0.11439051 0.03442144
0.110144086 -0.007867875 -0.14181721 -0.05058377 0.0038741862 0.08376859 -0.18178684 -0.15673782
-0.050001007 0.13680989 -0.032407664 0.08258465 0.029943245 0.103621624 0.03636715 0.0025187493
-0.09547154 -0.14789928 0.014770508 0.10781229 0.06027409 0.09052984 -0.04098653 -0.026401231
-0.018621821 -0.057323545 -0.11646662 -0.0067117475 0.0532092 0.045185585 0.18974367 -0.12744081
-0.22990137 -0.18001996 0.074397855 -0.090408355 -0.14724162 -0.020115884 0.15422785 -0.078481406
0.12077474 0.16014735 -0.06659435 0.066549025 0.18004633 0.0663934 -0.19205062 -0.11256759
-0.075236745 -0.17150834 -0.11747038 -0.16375697 0.12552452 -0.026429158 0.004877436 0.044599727
-0.04643176 -0.080654256 -0.132751 -0.045114465 -0.08184921 -0.0024230536 0.046649743 -0.029088642
-0.09691786 -0.13414665 -0.010183421 0.13768332 0.17567044 -0.15934968 -0.16559473 0.0015481669
0.09836017 -0.021828445 0.05091787 -0.048887495 -0.045410883 0.103659935 -0.08542947 -0.14350612
-0.09885938 -0.03936095 0.026261784 0.120190755 0.0890134 -0.06801992 -0.11801246 -0.04968613
-0.08683214 -0.08886604 0.18886426 0.24039516 -0.10077421 0.07098436 -0.016415492 0.055247664
-0.1752846 -0.068084724 -0.035689384 -0.075227104 -0.12185008 -0.010382418 -0.04589002 -0.17193559
0.041771114 0.0571339 0.13156135 -0.07885081 -0.15405671 0.07302863 -0.084967025 0.10228375
0.052257158 -0.079636104 0.015441555 -0.0896668 -0.0075555565 0.049463775 -0.1593489 0.1366488
0.06429554 0.18144105 -0.019153066 0.15295973 -0.053516656 -0.12256654 -0.087697186 -0.18029153
0.071877226 0.10480035 -0.1414884 -0.04528264 -0.11917088 0.051432673 -0.18682274 0.053429656
-0.027953774 -0.13468686 0.010760983 0.077024594 -0.02023794 -0.1276897 0.069384076 -0.21523201
0.16106534 -0.09185884 -0.015021032 -0.19576304 -0.096324064 0.07023828 0.032089066 -0.045291387
-0.12301138 0.16134281 -0.02611623 -0.060670547 0.10417109 0.044207048 -0.08418755 0.049625322
-0.18060368 -0.08662808 -0.07417873 -0.013295527 0.03543346 -0.05418967 0.031697914 0.06930801
-0.006788443 0.093706444 -0.0066709532 -0.16789323 -0.1443418 0.059061747 -0.1627394 -0.10854505

fc2.weight f4 [128, 260]
00000000: 7c00 183d 45e1 be3c 9f10 4ebd 3c5f 21bd
00000010: ab96 ac3d 0189 4ebc c58b a53c 1246 4e3d
00000020: db69 713c 3a51 10bd 1e36 c5bd d793 8cbd
00000030: 2ba8 47bc 6ca5 783d dd29 c7bc b9ed 853c
00000040: d6d0 b03b 4572 afbd c67d 293d 8f5f f2bb
00000050: ee9b 593c 9041 9abd b2d2 bf3c deff 493d
00000060: aaad 45bc b7f7 7dbd 2651 a5bd 9d87 9b3d
00000070: 1922 ad3d edab 29be 65bc 703c a1e3 b13d
00000080: c6c2 51bd fe52 b6bd a9ad 55be 6442 57bc
00000090: e67d 4f3c 6a4a f1bc 0d73 91bd 2424 adb9
000000a0: 0629 9abd 8240 5cbc 5997 bfbc cd3d 0dbe
000000b0: c68e 5d3d 6124 853d eac1 d8bc 2f6e d2b9
000000c0: 2742 b73d 28c2 1f3d 0b2b 853d a86d b2bd
000000d0: 0925 afbd 6943 a43d 8d2b 7fbd 4fda 0ebe
000000e0: c2cf fdbc f5f0 30bc 6ed2 d33d 3060 a8bd
000000f0: c901 13bd 86ae 113d b89f 993d b638 db3c
00000100: 3538 2b3d f356 87bd 88e6 5ebd 6a9d 973d
00000110: 92ed ef3d 746a d23d 745a 233b 30b5 093d
00000120: c808 06bc c6fb cc3d 6300 acbd beef 033e
00000130: ac03 d83c a585 b93a e4a9 35bc 177e 1a3e
00000140: 3f10 263d 1ca2 323d 2674 fa3a 30ee 25bd
00000150: 8d3a 113e fe2b b93d 49de d8bd 6eab c5bc
00000160: 6ba7 b6bd c362 b8bd 2f93 f33d 986f bdbc
00000170: e66e 80bc 7d7e f93d 3916 843c ffbd 97bc
00000180: 7a73 4ebd aceb 923d be0d 23bc 4ab0 9b3d
00000190: 543b e3bc bfae 8abd 7d59 f53d 1b7a 05bd
000001a0: 28a1 65bd 69da cb3c 7cdd 98bd 28bc 413d
000001b0: 29f8 1bbd 992f b3bd 10c7 28bd f406 f23d
000001c0: 180e dfbc abb2 03be 8ba9 3ebc fd18 933d
000001d0: 6b70 483b a1ce 1fbe 3b0e c4bd 8ada 973c
000001e0: 3f80 ec3d e1d4 96bd e570 bab9 b575 8d3d
000001f0: 8163 07bd 9233 833d 0aa5 04bd 44bc 883d
00000200: 2977 abbc de33 19be 2812 dcbc 0f83 13bc
00000210: 4302 7dbd b13d 1bbe 1ed3 2ebd 6520 fcbb
00000220: 650f f63c 54d6 68bd 5f5d 103e 1881 7f3d
00000230: 45d9 7dbd f818 953d 9240 5a3c 6dc3 743d
00000240: ed69 6abc 9cd8 873b 6a2f 0b3d 23de 2f3c
00000250: c854 9a3c 297e 00bc 96c5 6d3c 8eed afbd
00000260: c787 43bd 22fb 6d3d 2d90 66bb 9921 e9bb
00000270: f5b6 d7bd 34e8 17bd af60 6ebe 961f 743d
00000280: 50e3 363c 6161 0abd 8fbe b7bd c208 75be
00000290: 3659 4b3c 28c5 d3bd 3e9a c6bc ad53 78be
000002a0: e1a4 2d3c b9b0 ddbc 9f38 373d 8ac7 d6bd
000002b0: 6a99 c8bd 31e2 2fbc 2f37 9ebd 772e 24bd
000002c0: a553 053d 35e0 73bd bd48 6d3d 3a1c 783d
000002d0: 8a57 6ebd a94c 943c dbb4 54bd dabe 1a3e
000002e0: d2c6 99bc e43c 97bb cfa3 b4bd 6e1e d03d
000002f0: ce43 c7bd 2d3c 0d3e 1e74 96bd 2349 1bbe
00000300: 9f84 fb3c cff6 eb3b ffd1 3f3d 2265 03be
00000310: 018f 2abe d935 973d 1334 92bc 7f37 0fbe
00000320: fb27 663c b721 0f3d 0cfa d63c 5c37 003d
00000330: 01fb 4ebd c554 abbd 53fb 223d e2b8 abbd
00000340: 1652 2bbe 4d7d 1dbd 77b0 e3bd f79a 0cbd
00000350: 1ee5 a93c c367 643a aacb ce3c 0b99 91bd
00000360: 54c1 823d 6e86 a6bd 119c 94bc 2b21 07be
00000370: cb3e c03d 2a30 e33c 971c 673d 856e 373d
00000380: e910 fbbc c113 01be 8af5 9d3c b8c1 153d
00000390: a3ef 0a3d 4ef9 b4bd 4462 8c3d 61ad aa3d
000003a0: 4ff0 33bd 7bdf b83b b78d edbc dcb6 05bd
000003b0: ef79 c43d 4ccb 033d bbf3 6e3d e4f2 83bd
000003c0: 78d2 a1bd 2f22 88bd fe65 17bd 2f44 4cbd
000003d0: 3e5d babd b6af 4a3d b983 8fbe 9542 66bd
000003e0: c084 9fbd 9b46 33bd 322d fc3c a3b2 a03d
000003f0: f51a ca3c defb 2cbc 0979 2f3c 8532 843c
0.037109837 0.023300776 -0.05030882 -0.039397463 0.08427175 -0.012605906 0.020208249 0.050359793
0.014734711 -0.035233714 -0.09629463 -0.06864136 -0.01218609 0.060704634 -0.024311954 0.016348707
0.005395989 -0.08566717 0.041379713 -0.0073966454 0.013281805 -0.07532036 0.023415897 0.04931628
-0.0120653305 -0.062003817 -0.080721185 0.075942256 0.08453769 -0.1656949 0.014693354 0.08685995
-0.05121114 -0.08902548 -0.20867027 -0.013138387 0.012664294 -0.029454429 -0.07102022 -0.00033024058
-0.07527356 -0.013443114 -0.023387598 -0.13793106 0.054091237 0.06501079 -0.026459653 -0.00040136414
0.089481644 0.03900352 0.065023504 -0.087123215 -0.08551986 0.0802067 -0.062297393 -0.13950466
-0.030982856 -0.010799636 0.10342871 -0.08221471 -0.035890374 0.03556683 0.07501167 0.02676044
0.04180165 -0.06608381 -0.05441907 0.07403071 0.11715235 0.102742106 0.002492574 0.03362006
-0.008180805 0.100089595 -0.08398511 0.12884423 0.026368938 0.0014154209 -0.011087868 0.15087162
0.040542837 0.04361163 0.0019108101 -0.040510356 0.14182492 0.09041594 -0.105892725 -0.024129596
-0.08918651 -0.09003212 0.118933074 -0.023124501 -0.01567788 0.12182329 0.016123878 -0.018523214
-0.050403096 0.07173857 -0.009952007 0.07601984 -0.02773825 -0.067716114 0.11979959 -0.032587152
-0.056061894 0.02488442 -0.0746412 0.04729858 -0.03807846 -0.08749313 -0.041205466 0.118177325
-0.0272284 -0.12861125 -0.011637102 0.071825005 0.0030584584 -0.15606166 -0.09573027 0.018536825
0.115478985 -0.07364822 -0.00035560798 0.069072165 -0.03305388 0.06406321 -0.032383956 0.06676534
-0.020930843 -0.14961192 -0.026864126 -0.009003415 -0.061769735 -0.15160252 -0.042681806 -0.0076942914
0.030036638 -0.056845024 0.14098118 0.062378973 -0.061974782 0.07280153 0.013321059 0.059756685
-0.014307481 0.004145695 0.033980764 0.010734114 0.018839255 -0.007842579 0.01451244 -0.08590232
-0.04773691 0.058100827 -0.003518115 -0.007114601 -0.10532943 -0.03708668 -0.2327907 0.059600435
0.011162594 -0.033784274 -0.08971893 -0.23929122 0.012411406 -0.10340339 -0.02424347 -0.2425067
0.010598392 -0.027061807 0.044731732 -0.10487278 -0.097948864 -0.010735081 -0.07725369 -0.040083375
0.032550473 -0.059539992 0.057930697 0.060573794 -0.058188953 0.01810296 -0.05193029 0.15111867
-0.018771563 -0.004615413 -0.088203065 0.10162054 -0.097297296 0.13792486 -0.07346366 -0.15164618
0.030702887 0.0072010527 0.046831127 -0.12831548 -0.16656114 0.073833175 -0.017847097 -0.13986014
0.014047618 0.034944262 0.026242279 0.031302795 -0.050532345 -0.08365778 0.039790463 -0.08384873
-0.16730532 -0.038449574 -0.111176424 -0.034327473 0.020739134 0.00087129715 0.025243599 -0.07109269
0.06384531 -0.08131109 -0.018140825 -0.13196246 0.09386977 0.027732927 0.05642375 0.044783134
-0.030647712 -0.12605192 0.019282121 0.036561698 0.03391994 -0.088366136 0.0685468 0.08333851
-0.043930348 0.0056418753 -0.028998239 -0.03264509 0.095935695 0.0321763 0.05833791 -0.06442812
-0.07901472 -0.06647145 -0.0369625 -0.049869712 -0.09099816 0.049483977 -0.28030184 -0.05621584
-0.07788992 -0.043768506 0.03078327 0.07846572 0.024671057 -0.010558097 0.010710009 0.01613737

fc2.bias f4 [128]
00000000: 45a7 00bb c0b6 1cbd f437 0e3d 9bf4 9cbd
00000010: 3107 37bc 2f11 273d f7c8 293d e420 33bd
00000020: 05c6 783c a813 893d 9f38 2d3c f14c 11bc
00000030: eff9 b5bc 3964 3f3b 7c46 863d 2040 dc3d
00000040: 18b1 de3d 30f5 fe3c 297d 8cbd cdb5 93bd
00000050: 2104 37bd 2e9d 75bd 302b 87bd 0d01 f83c
00000060: 5df8 393d e4e5 4dbd cb94 6d3d 4379 cbb8
00000070: 5751 84bd b490 21bd 7f5e 943d 5866 5a3d
00000080: c847 3abc 42c6 8dbc a8aa d73c 80a3 e43b
00000090: 2e89 af3d 4741 1b3d dfce 9e3c 2044 db3c
000000a0: d5f8 0a3d 6414 86bd a60b dd3d 44ff 973c
000000b0: 9c41 c13d 10da b03d 9ef1 2ebd 578a bf3d
000000c0: b6a2 1c3d 6f7d 5c3d 7370 a93d 2293 9f3d
000000d0: d451 903a 2e29 56bc 1ab9 993d 561a b43d
000000e0: 510d a53d 04d7 a13d bb61 863b 5563 78bd
000000f0: d0f8 293d b99c c5bc 7095 be3d 8564 75bd
00000100: 86d5 c5bc 0d59 ba3c 1b4a 96bd 9242 10bd
00000110: 6391 46bd 35a5 1cbd 54e3 d83c 9e94 5b3d
00000120: a28d 22bc ef17 bbbd 3857 5e3d 3b8b acbc
00000130: 7705 d63c c135 913b ced2 c3bc 0cee e7bc
00000140: ce7d cabc 5d17 31bd cb33 863d faaf 21bd
00000150: d829 f3bc 71eb 04bd 47b5 ae3d 7e6f debd
00000160: e3e1 023e 8855 51ba 2e1a 85bd d8a2 dd3d
00000170: b67d 1d3e 080b ed3d cd9f 2fbd 1e9c f53d
00000180: 6856 dd3c c1a6 8b3d ddf5 813b 1545 1abd
00000190: 46ce d03c 8178 a83d 8723 c5bd 5ba0 04bd
000001a0: f261 d33b cb50 92bc 5d0f 9f3c 472b 6c3d
000001b0: e371 6c3d 2d59 e13d e2e3 a83c a488 5e3c
000001c0: 790a c23c d1b9 43bd abcd bd3d bf1a 8e3d
000001d0: f4ee 073b a4a9 64bd c5bc 9cbd 6efe a83d
000001e0: 6140 113e eb53 dd3d f39e 333c 90d6 98bd
000001f0: f836 12bc 52e9 bcbd bb0c e23d aa8d 03bd
-0.001963095 -0.03826022 0.03472133 -0.07663842 -0.011171148 0.040787872 0.04145142 -0.04373254
0.01518393 0.06693202 0.010572582 -0.008868442 -0.022213904 0.0029204024 0.065564126 0.107544184
0.10873622 0.031122774 -0.0685981 -0.0721241 -0.044681672 -0.05996435 -0.06600034 0.030273939
0.045402873 -0.05026807 0.05800323 -9.702381e-05 -0.06460827 -0.03944464 0.07244586 0.05332026
-0.011369653 -0.01730645 0.026326492 0.0069774985 0.08571087 0.03790405 0.019385753 0.026765883
0.03392871 -0.06546858 0.107932374 0.018554337 0.09436342 0.08635342 -0.042710893 0.09352558
0.03824111 0.05383056 0.08273401 0.07791735 0.0011010715 -0.013071341 0.075060084 0.08794086
0.080591805 0.07902339 0.004101006 -0.060641605 0.04149705 -0.024122583 0.09305847 -0.059910316
-0.024149667 0.02274754 -0.07338353 -0.035219736 -0.048478495 -0.03824349 0.026475586 0.05360853
-0.009921463 -0.09135424 0.054282397 -0.021062484 0.026125653 0.004431457 -0.02390423 -0.028311752
-0.024718191 -0.04323517 0.065528475 -0.039474465 -0.029683039 -0.032451097 0.0853067 -0.10861109
0.12781481 -0.00079854624 -0.06499134 0.108220756 0.15379986 0.1157437 -0.042877007 0.119926676
0.02701874 0.06818915 0.0039660768 -0.037663538 0.025488984 0.08226109 -0.09625917 -0.03237949
0.006450885 -0.01786079 0.019416505 0.05765846 0.0577258 0.11003337 0.020616475 0.013582382
0.023686634 -0.04778463 0.09267744 0.06938695 0.0020741792 -0.055825844 -0.076531924 0.082516536
0.14184715 0.10807022 0.010963189 -0.074627995 -0.008924238 -0.0922419 0.110375844 -0.032117523

fc3.weight f4 [1, 128]
00000000: 31d6 19be 8bd9 7cbd 80dd 5a3d 3ba6 2abd
00000010: 620e d4bd 4301 543d f20d 45be bada 88bd
00000020: 1756 adbd 42a4 583e 5fcf 1abd 638d 9bbe
00000030: d0a9 053e 9797 69be e4eb 9d3d 596c 923d
00000040: be9f 633d 4b90 ca3d e817 a9bd a15e c3bd
00000050: 332a f1bd 753f 60bd a78c 4dbe 54ca 3f3d
00000060: 44f4 723e c764 3fbd 31d6 823d d519 f4bd
00000070: 77d4 61be b3eb 49be 9b80 503d 576e 703d
00000080: 3727 8a3d 6e4c c93d 3a26 8e3d 5703 68be
00000090: a49d 5d3e 2e79 62be f433 923d 1fdf 5a3d
000000a0: d5bd 563e 24eb 12bd 9445 a83d 34ce 94be
000000b0: a962 d63d 709f 523d 50de 48be 5dd8 8e3d
000000c0: 2664 b2bd 262f 543d 6b3a be3d 254c 613d
000000d0: 39df 353d bf5d f53d c9cf 8e3d a94c 083e
000000e0: 9477 8a3d 05b2 8b3d 2122 32bd 56ef 1cbe
000000f0: c068 99bd dec4 92bd 4da7 fa3d 3608 0fbe
00000100: e58f d83d fef0 e3bd 05be 99bd e97d 7bbe
00000110: 71d9 08be d9b3 a93d 2dce 96bd 9345 b93d
00000120: 901b 8abe 1a8f 12be 9770 fc3d 7d71 38be
00000130: 8346 96be 915b a43d 370f 96bd c704 7abd
00000140: 897c 60bd 8d88 53be 7563 b83d c14f 4cbe
00000150: da58 f6bd 4b7a 0dbe 603e 783d 150b fdbd
00000160: 074f c63d 7611 be3d ab81 a7be 9ef0 5a3d
00000170: 8345 0c3e 9405 703d bfef 00bd ca79 783d
00000180: 537b 543d 7e05 893d 65a7 bfbd e630 87bd
00000190: 6aca 0e3e f69a b73d 66dd a0bd f02d 87bd
000001a0: d639 4dbe 0ec2 debd df7d 173e f8b6 5f3d
000001b0: 2132 973d 2e98 833d 2acd 82be d361 803d
000001c0: 2024 3b3d 3848 1cbe 5ddc 893d dfbf a53d
000001d0: eb9f 6dbe d145 6ebd b368 35be a123 3f3d
000001e0: d2f1 c03d 2500 893d 4451 73be 5ff9 adbd
000001f0: 4a6a 10be 79a3 6ebd debf 0b3d 014f 28be
-0.15023114 -0.061730903 0.053433895 -0.041662436 -0.10354306 0.051759016 -0.19243601 -0.06682344
-0.08463686 0.2115641 -0.03779542 -0.30381307 0.1305306 -0.22811733 0.07711008 0.07149572
0.055572264 0.09890803 -0.08256513 -0.095395334 -0.11775627 -0.054748017 -0.20073186 0.046823815
0.23725992 -0.04672697 0.0638851 -0.119189896 -0.22053705 -0.19718818 0.050903898 0.05869898
0.06745761 0.09829031 0.06940885 -0.22657524 0.21642166 -0.22116539 0.071388155 0.05343544
0.20970853 -0.03586878 0.08216396 -0.2906357 0.10468037 0.051421583 -0.19616055 0.06974862
-0.08710508 0.051802777 0.09288486 0.055004258 0.044402335 0.11980771 0.069732256 0.13310494
0.06761089 0.06821064 -0.04348958 -0.15325674 -0.074906826 -0.07166456 0.12238941 -0.13967976
0.10574321 -0.1112995 -0.075069465 -0.2455975 -0.13364197 0.08286256 -0.07363544 0.09046473
-0.26974154 -0.14312401 0.12326162 -0.18012042 -0.2935067 0.080252774 -0.07327121 -0.061039712
-0.054806266 -0.20657559 0.09003345 -0.19952299 -0.12028666 -0.13816182 0.06060636 -0.12355629
0.09683042 0.09280674 -0.32716116 0.053452127 0.13698392 0.05859907 -0.03147864 0.060663022
0.051875424 0.06690501 -0.093581 -0.066011235 0.13944402 0.08965103 -0.078547284 -0.06600559
-0.20041594 -0.10876857 0.1479411 0.054617852 0.07382608 0.0642551 -0.25547153 0.062686585
0.04568875 -0.15261924 0.06731484 0.08093237 -0.23205535 -0.05817205 -0.17715721 0.046664838
0.094211236 0.06689481 -0.23761469 -0.084948294 -0.14103046 -0.05826137 0.034118526 -0.16436388
