checkpoint_actor.pth (torch, 170327 bytes, 6 tensors)

fc1.weight f4 [256, 33]
0	0x3e0b6c48	0.13615525
1	0x3e247868	0.16061556
2	0x3c8edfc8	0.017440692
3	0xbd24d6f9	-0.040244076
4	0x3e0ca0f3	0.13733272
5	0x3e0c6242	0.13709357
6	0xbd571cc1	-0.052517656
7	0x3d96b0db	0.07357951
8	0x3d05cb5e	0.03266465
9	0x3d3f7529	0.046742592
10	0xbd29d779	-0.041465256
11	0xbd185c0f	-0.03719717
12	0xbd59ae1a	-0.05314455
13	0x3e7c2055	0.24621709
14	0xbd98f149	-0.074678965
15	0xbbcaa56b	-0.00618427
16	0x3d937001	0.071990974
17	0x3df33f77	0.11877339
18	0x3d9d4bc5	0.076804675
19	0x3bf4dbf0	0.0074725077
20	0xbce78224	-0.028260298
21	0x3e018dce	0.1265175
22	0x3d1eb8a8	0.03875032
23	0x3d4bd969	0.049767885
24	0xbcbf9b74	-0.023389556
25	0xbdf601df	-0.12012076
26	0xbe32f509	-0.17476286
27	0x3d7bb226	0.061449192
28	0xbd843873	-0.06456079
29	0x3d3ddfd2	0.04635603
30	0xbd5a9e21	-0.05337346
31	0xbcac232c	-0.021012865
32	0x3e24f8b0	0.16110492
33	0x3dfd9cec	0.12383446
34	0xbdb49c0a	-0.088188246
35	0xbda815a4	-0.082072526
36	0x3d5456ec	0.051840708
37	0x3cf7dac6	0.030255686
38	0x3b8324dd	0.004002197
39	0xbdb39b80	-0.08769894
40	0x3dcecf3a	0.10098119
41	0x3d041e09	0.032255206
42	0x3d007bbc	0.031368002
43	0xbb1730c2	-0.0023069833
44	0x3c2c15dd	0.0105032595
45	0xbd374180	-0.0447402
46	0x3de49e5e	0.11163019
47	0x3d6e3480	0.058155537
48	0x3e354c3a	0.1770486
49	0xbb52593d	-0.0032096647
50	0xbb0fa5d9	-0.0021918921
51	0x3e210c43	0.15727334
52	0xbde33d5a	-0.11095686
53	0xbc98685c	-0.01860445
54	0xbd57c4de	-0.05267798
55	0xbd52c224	-0.05145468
56	0x3cc8e816	0.02452473
57	0x3d611cc6	0.05495908
58	0x3e1c6aa0	0.15275049
59	0x3dce6cf3	0.10079374
60	0xbe15d37d	-0.14631458
61	0xbdd92e7b	-0.106045686
62	0x3d1a8642	0.037725694
63	0x3e293b33	0.16526489
64	0xbcc00cb8	-0.023443565
65	0x3ea236dc	0.3168248
66	0xbe1779ce	-0.14792559
67	0xbdcbbfb7	-0.09948676
68	0x3dbaa08a	0.09112652
69	0xbbf5ffc0	-0.0075072944
70	0x3d228467	0.03967705
71	0x3d1ecfb4	0.0387723
72	0x3ad8137a	0.0016485297
73	0x3d561965	0.05227031
74	0xbdd28bde	-0.10280584
75	0xbc661314	-0.0140426345
76	0xbce4c972	-0.027928088
77	0xbddbdef7	-0.107358865
78	0x3d474b71	0.04865593
79	0x3e5326c3	0.20620255
80	0xbe024d52	-0.12724808
81	0xbd7a31ec	-0.061082765
82	0xbdaeba5a	-0.085316375
83	0xbd2a4791	-0.041572157
84	0x3c03b99f	0.008039861
85	0x3b84a3c0	0.004047841
86	0xbcccbe55	-0.024993101
87	0xbd969360	-0.07352328
88	0x3d9eed63	0.07760122
89	0x3d96f119	0.073702045
90	0xbcbacf02	-0.022803787
91	0xbca90400	-0.02063179
92	0xbe0a7d7c	-0.13524431
93	0xbdc6070b	-0.09669312
94	0xbbcdef3a	-0.0062846215
95	0xbc41deb8	-0.011832885
96	0x3d4d72ee	0.050158434
97	0xbd1e3dae	-0.03863304
98	0xbd71bbba	-0.05901692
99	0x3c78b186	0.015179044
100	0xbe02b62d	-0.12764807
101	0x3cfc8cf5	0.030828932
102	0x3db2b35d	0.08725617
103	0x3d1de675	0.03854986
104	0xbdaa901b	-0.08328267
105	0x3ca6f849	0.020382063
106	0xbd1b940e	-0.037982993
107	0x3e16ccf3	0.1472662
108	0xbd1b4c98	-0.037914842
109	0x3da10bde	0.078635916
110	0x39cf6805	0.00039559617
111	0xbbe201c7	-0.0068971845
112	0x3e82de0f	0.25560042
113	0x3d77c833	0.06049366
114	0x3b83de8b	0.004024332
115	0xbd9c4958	-0.07631177
116	0x3dbf1a2e	0.09331165
117	0x3d807308	0.062719405
118	0x3d3b130b	0.045672458
119	0xbd4845a7	-0.04889455
120	0xbcf6225a	-0.030045677
121	0x3cef6edb	0.029227665
122	0x3d6aeccb	0.05735473
123	0xbcb5d835	-0.022197822
124	0xbdd1119d	-0.102084376
125	0xbe2e4855	-0.1701978
126	0xbc49d7f2	-0.012319552
127	0x3dbbad91	0.091639645
128	0x3bf80a80	0.007569611
129	0xbc7e1a0e	-0.015509142
130	0x3cd133d0	0.025537401
131	0xbd6f5163	-0.058427226
132	0x3c63b562	0.0138982255
133	0xbd19bde7	-0.03753462
134	0xbcef1697	-0.029185576
135	0x3cb78d14	0.022406138
136	0xbd537e93	-0.051634382
137	0x3db9ae41	0.090664394
138	0xbdcf86e5	-0.10133151
139	0xbdba492d	-0.090959884
140	0xbd4cd185	-0.0500045
141	0x39442bcd	0.00018708334
142	0x3d65384c	0.055961892
143	0x3dc3de0e	0.09563838
144	0xbd935818	-0.07194537
145	0xbdaa3dc2	-0.083125606
146	0x3da0e88d	0.078568555
147	0xbe49f5ec	-0.19722718
148	0xbc4b1f7f	-0.012397646
149	0x3b4e4dc7	0.0031479464
150	0xbd820ea9	-0.063504525
151	0xbc1e7264	-0.009670828
152	0xbdd4dd67	-0.10393792
153	0x3dda967c	0.10673234
154	0xbe1f7f35	-0.1557587
155	0x3d893562	0.06699635
156	0xbd9ce7e9	-0.07661421
157	0xbd093d47	-0.033505704
158	0x3e1202a9	0.14258827
159	0xbd42edd7	-0.047590103
160	0x3df2c949	0.11854798
161	0x3d2ec3c6	0.042667173
162	0x3d5fb858	0.054619163
163	0xbbe1e170	-0.0068933293
164	0xbedf9ff2	-0.43676716
165	0x3d0eb694	0.03484209
166	0x3cb52b77	0.022115452
167	0x3dac0b96	0.08400647
168	0x3cf35665	0.029704282
169	0xbc3ed2e1	-0.011646957
170	0x3e2d3824	0.16915947
171	0x3b95bd41	0.00456968
172	0xbdbe52da	-0.092931464
173	0xbde7fed8	-0.113279045
174	0x3b64401f	0.0034828258
175	0x3d60e34d	0.05490427
176	0x3de6f1cd	0.112765886
177	0x3d88cab8	0.066792905
178	0x3e2c7b7f	0.16843985
179	0xbd1455bd	-0.03621458
180	0xbc5492aa	-0.012974421
181	0x3df593bc	0.11991069
182	0x3bab399d	0.005225374
183	0xbd112dbc	-0.035444006
184	0x3becfb6d	0.0072321207
185	0x3d84b3f3	0.06479635
186	0xbd013525	-0.031544823
187	0x3e0657fc	0.13119501
188	0xbcffc12c	-0.031220041
189	0xbe18f44d	-0.14936943
190	0x3d0158dc	0.031578884
191	0x3dcc0c19	0.09963245
192	0xb9aafd4c	-0.00032613648
193	0x3d3ec0a3	0.04657043
194	0x3ae19300	0.0017209947
195	0x3d78b936	0.060723506
196	0x3d421050	0.047378838
197	0xbef01060	-0.46887493
198	0x3e17e0a7	0.14831792
199	0xbd37adfd	-0.044843663
200	0x3d8c678a	0.06855686
201	0xbc912c4b	-0.017721316
202	0x3df378f8	0.11888307
203	0xbdab8c10	-0.08376324
204	0xbcebec9d	-0.02879935
205	0xbd02a612	-0.03189666
206	0xb99d57e0	-0.00030010846
207	0xbdad86cf	-0.08472978
208	0x3d131025	0.03590407
209	0xbdfd6e5b	-0.12374564
210	0xbce1b213	-0.027550733
211	0xbd801dc7	-0.062556796
212	0x3e44d3ad	0.19221373
213	0x3d04be30	0.03240794
214	0xbcfc1e7b	-0.030776253
215	0x3c13de96	0.009025237
216	0xbd9a888a	-0.07545574
217	0xbcde524f	-0.027138857
218	0xbda476a7	-0.08030444
219	0x3c574abb	0.013140376
220	0x3ce86881	0.028370144
221	0xbc12904e	-0.008945538
222	0x3c5e3652	0.013562756
223	0xbd0e5e9e	-0.034758203
224	0xbc24758d	-0.010037792
225	0xbc55433c	-0.013016518
226	0x3e519673	0.20467548
227	0x3d6f7136	0.058457576
228	0x3dc3eb49	0.095663615
229	0x3cbbf0a8	0.022941902
230	0x3da02834	0.07820168
231	0x3d0ae63b	0.03391097
232	0x3de713f5	0.112831034
233	0xbdd27cdb	-0.102777205
234	0xbd3f4e66	-0.046705626
235	0xbd1f9ad2	-0.038966008
236	0x3d9da334	0.07697144
237	0xbdb73ad9	-0.08946771
238	0xbd4f36e8	-0.050589472
239	0xbcf6efcd	-0.030143643
240	0x3de86a1a	0.11348362
241	0xbd037593	-0.03209455
242	0xbe181f59	-0.14855708
243	0x3d4ba764	0.049720183
244	0xbcaaaf8d	-0.020835662
245	0xbcbe11cc	-0.023201846
246	0x3cc7913d	0.024361247
247	0x3e1f20de	0.15539882
248	0xbe003528	-0.12520278
249	0x3e03e3e4	0.12879902
250	0x3d40a3aa	0.047031082
251	0x3cb765b8	0.02238737
252	0x3dbebea1	0.09313703
253	0xbd9e2dc5	-0.077235736
254	0xbe1c332f	-0.152539
255	0x3dcd785b	0.100327216

fc1.bias f4 [256]
0	0xbd9c5196	-0.07632749
1	0x3c80c4d3	0.015718853
2	0x3e437f6e	0.1909158
3	0xbc2f4c59	-0.010699355
4	0x3db18021	0.08667017
5	0x3ce62132	0.028092
6	0xbde81f64	-0.11334112
7	0x3cc34ca6	0.02384026
8	0x3e06e7be	0.1317434
9	0x3c95c63e	0.018283006
10	0xbb93ee01	-0.0045144563
11	0x3e41740c	0.18891925
12	0xbce10564	-0.02746839
13	0x3e7e1b66	0.24815139
14	0x3e51060d	0.20412464
15	0x3e2f3e9a	0.17113724
16	0x3c279617	0.010228655
17	0x3e23d5d3	0.15999536
18	0xbe09a1ec	-0.13440675
19	0xbdbe47ad	-0.09291015
20	0x3df42114	0.11920372
21	0xbe24124e	-0.16022608
22	0x3dd3fc77	0.10350888
23	0x3e5f985d	0.21835466
24	0xbdb76dd0	-0.08956492
25	0x3be91676	0.0071132733
26	0x3e16db97	0.14732204
27	0x3c55f23a	0.01305824
28	0x3ca1460c	0.019686721
29	0xbcc25a0a	-0.023724575
30	0xbd320d7d	-0.043469895
31	0xbca005ad	-0.019533956
32	0x3d6c03a6	0.057620667
33	0xbe0f25cb	-0.1397926
34	0xbe00d438	-0.12580955
35	0x3e157076	0.14593682
36	0xbd072ecd	-0.033003617
37	0xbe62628a	-0.22107902
38	0x3d9181e6	0.07104854
39	0x3dc2dd9a	0.095149234
40	0xbe50e7fe	-0.20400998
41	0x3c9cbd44	0.019133218
42	0x3e0d5a77	0.13804041
43	0x3e52b5d4	0.20577174
44	0x3db4a420	0.08820367
45	0xbdc902e2	-0.09815003
46	0x3e205172	0.15656069
47	0x3d156145	0.036469717
48	0x3e1d3d2c	0.15355366
49	0x3e336e79	0.1752261
50	0xbe32abdb	-0.1744837
51	0x3de85e0d	0.11346064
52	0x3d3a5e9f	0.045500394
53	0xbd315bbb	-0.04330037
54	0x3d221ede	0.03958022
55	0x3e3d305a	0.18475476
56	0x3d0753e4	0.03303899
57	0x3d3036be	0.043020956
58	0xbe3afbeb	-0.18260162
59	0x3e037c97	0.12840496
60	0xbe804377	-0.25051472
61	0xbd928387	-0.07153993
62	0x3cd7055a	0.026247669
63	0x3e17273b	0.14761059
64	0xbd8cd654	-0.06876817
65	0xbe1f0dc9	-0.15532602
66	0x3e2664e5	0.16249426
67	0x3c265ba0	0.010153681
68	0x3e1fc9ab	0.15604274
69	0xbb643808	-0.0034823436
70	0x3e5375bf	0.20650385
71	0xbd818639	-0.06324429
72	0xbe349e74	-0.1763857
73	0x3da8b683	0.08237936
74	0x3d40a170	0.04702896
75	0x3e60b3ad	0.21943541
76	0xbd75e029	-0.06002823
77	0x3d0b166f	0.03395694
78	0x3ba420b4	0.0050087813
79	0xbd0e804f	-0.034790333
80	0x3dfa3c44	0.12218526
81	0xbd89988d	-0.0671855
82	0xbdf56ceb	-0.11983665
83	0x3c890f30	0.016730875
84	0x3e037bf1	0.12840249
85	0x3dc90346	0.098150775
86	0xbdd11cf5	-0.10210601
87	0xbd87ecfb	-0.06636997
88	0xbd609830	-0.054832637
89	0x3dbeb11c	0.09311125
90	0x3d5e4103	0.05426122
91	0x3e57386c	0.21017617
92	0x3dd3054c	0.10303745
93	0x3e186ac8	0.14884484
94	0x3cbdee7f	0.023185013
95	0x3e00c884	0.1257649
96	0xbd5b5b3e	-0.053553812
97	0xbde31365	-0.110876836
98	0x3dc3ed5f	0.09566759
99	0x3d6d5278	0.057939976
100	0x3c312370	0.010811672
101	0x3d4c88f3	0.049935292
102	0xbb062e45	-0.0020474356
103	0x3d6b6b43	0.05747534
104	0x3da33202	0.079685226
105	0xbd695e9f	-0.056975003
106	0xbd738453	-0.059452366
107	0xbd8a401c	-0.06750509
108	0x3b5e62cf	0.0033933406
109	0x3daf7eab	0.08569082
110	0x3dfad57d	0.12247751
111	0x3d4f7208	0.050645858
112	0xbe0cce5d	-0.13750596
113	0xbd9c9932	-0.07646407
114	0xbb23ee20	-0.002501376
115	0xbd80ddc3	-0.06292298
116	0xbe6b6e20	-0.22991228
117	0x3d210b5f	0.039317485
118	0x3e1f1f59	0.15539302
119	0xbc49cd0a	-0.0123169515
120	0x3e4c1182	0.19928554
121	0x3e707925	0.23483713
122	0x3d7eb12c	0.062180683
123	0x3dc6a596	0.09699552
124	0x3e996b15	0.2996451
125	0x3e6e0957	0.2324575
126	0xbe05d238	-0.13068473
127	0xbe1d98d8	-0.15390337
128	0xbe02e826	-0.1278387
129	0xbe421af5	-0.18955596
130	0x3c27260c	0.010201942
131	0xbe40465e	-0.18776843
132	0x3da79c40	0.08184099
133	0xbd483e44	-0.048887506
134	0xbd2f5808	-0.042808563
135	0x3def86ac	0.116956085
136	0xbe32e47f	-0.17469977
137	0xbe102a03	-0.14078526
138	0x3c6f0b67	0.014590121
139	0xbd2a5734	-0.04158707
140	0xbc8abfa4	-0.016937084
141	0xbdb5f6c2	-0.08884956
142	0x3c296ee9	0.010341384
143	0xbe40cb7d	-0.18827625
144	0xbd5f7e8e	-0.05456405
145	0x3c93caf1	0.018041106
146	0x3d08f58c	0.033437297
147	0x3d29304e	0.041305833
148	0x3e2f625d	0.17127366
149	0xbe1d0acf	-0.15336154
150	0xbe1979b1	-0.14987828
151	0x3bf245bc	0.007393567
152	0x3e658d29	0.2241713
153	0xbdc9321b	-0.0982401
154	0x3d731a5e	0.059351318
155	0xbcfc0a2c	-0.03076657
156	0xbe53ba34	-0.206765
157	0x3dc92b41	0.09822703
158	0xbde15a8e	-0.110036
159	0xbd7d4617	-0.06183442
160	0xbce4fc73	-0.027952408
161	0xbdf4051d	-0.11915038
162	0x3e268af9	0.16263951
163	0x3e2e1618	0.17000616
164	0xbcc0e1ea	-0.023545224
165	0xbd53a67a	-0.051672436
166	0xbe2f7c8e	-0.17137358
167	0x3d2d95ec	0.042379305
168	0xbe0dfc76	-0.13865837
169	0x3c9117f3	0.017711615
170	0x3df8817f	0.121340744
171	0x3e82c9cc	0.25544584
172	0xbe06e3d0	-0.13172841
173	0x3dba3c6e	0.09093557
174	0x3d7457c6	0.05965402
175	0xbc9b2a37	-0.018941028
176	0xbe27eeae	-0.16399643
177	0xbd2c5855	-0.042076427
178	0x3d9d425c	0.07678673
179	0xbe7c946e	-0.24665996
180	0xbd1132d9	-0.035448883
181	0x3c08ac6a	0.008341888
182	0x3c1fde6e	0.009757621
183	0xbe6dbe31	-0.23217084
184	0x3e420515	0.18947251
185	0x3dda41bd	0.1065707
186	0x3e0e9f4d	0.13927956
187	0xbe87b239	-0.2650316
188	0x3d11a395	0.035556395
189	0x3c03c2e9	0.008042076
190	0xbd90c049	-0.070679255
191	0x3e21756e	0.15767452
192	0x3c9d8ec0	0.019233108
193	0xbc8ac1b6	-0.016938072
194	0xbc5b360e	-0.013379587
195	0xbdba785c	-0.09104988
196	0x3c37f406	0.011227613
197	0x3d102934	0.035195544
198	0xbe014f76	-0.12627968
199	0x3e0f970e	0.14022467
200	0x3e23bfd4	0.15991145
201	0x3e1e76ba	0.15474978
202	0x3d766d14	0.06016262
203	0x3e08474c	0.13308448
204	0x3db1727a	0.08664413
205	0xbdc08a99	-0.094014354
206	0xbd51a607	-0.051183727
207	0xbd46fe7b	-0.048582535
208	0x3de8184c	0.11332759
209	0x3e175cd8	0.14781511
210	0xbdc4eff0	-0.09616077
211	0x3c539832	0.012914704
212	0xbd26f4fa	-0.04076097
213	0x3de10a1e	0.10988258
214	0xbe4f21c3	-0.20227723
215	0x3cdbed95	0.026846686
216	0xbd2e9687	-0.042624023
217	0xbdb39099	-0.08767814
218	0xbde466d7	-0.11152428
219	0x3e8487f7	0.25884983
220	0x3c519212	0.0127911735
221	0xbe11243e	-0.14173982
222	0x3e098f8c	0.13433665
223	0xbd84c028	-0.064819634
224	0x3e16ad56	0.1471456
225	0xbdccbc94	-0.09996906
226	0x3df3d2b8	0.11905426
227	0xbdc9da98	-0.098561466
228	0xbd85c914	-0.06532493
229	0x3d1a6bb3	0.037700366
230	0x3dfd1cc0	0.12358999
231	0xbc294597	-0.010331533
232	0xbe0b390b	-0.13595979
233	0x3e0eac44	0.13932902
234	0x3e04f442	0.12983802
235	0x3daa990c	0.083299726
236	0x3e13591a	0.14389458
237	0x3da43c30	0.08019292
238	0xbd1ef7a1	-0.038810376
239	0x3d4b0915	0.04956921
240	0xbe0340b9	-0.12817658
241	0xbe6f0f0f	-0.23345588
242	0x3c122ca9	0.008921781
243	0x3c352bd5	0.011057814
244	0x3d9e5875	0.077317156
245	0xbce43c1f	-0.0278607
246	0x3db580aa	0.08862431
247	0x3e24c2c2	0.16089919
248	0xbb579d5e	-0.0032900195
249	0x3e7e2bb8	0.24821365
250	0x3cb73b24	0.022367068
251	0xbe4a34d6	-0.19746718
252	0xbde8d178	-0.11368078
253	0x3dfcadd4	0.123378426
254	0xbdccc29d	-0.09998057
255	0xbd56dbed	-0.05245583

fc2.weight f4 [128, 256]
0	0xbe02d0f5	-0.12775023
1	0x3e22f022	0.15911916
2	0xbe489e50	-0.19591641
3	0xbdba6916	-0.09102075
4	0x3d0a00b0	0.033692062
5	0xbdf90e76	-0.12160961
6	0xbdda2cb5	-0.106530584
7	0x3dea440b	0.114387594
8	0x3d472f42	0.048629053
9	0x3d19b6ad	0.03752773
10	0xbd6a477c	-0.05719708
11	0x3e3deab0	0.18546557
12	0x3b2d1e94	0.002641593
13	0x3e19ed72	0.15031984
14	0x3bbcdb38	0.0057634376
15	0xbd13dfd2	-0.036102124
16	0x3d590444	0.052982584
17	0x3dc42dcb	0.09579047
18	0x3ccbdc01	0.02488518
19	0x3c96d98a	0.018414278
20	0xbe56f4a0	-0.20991755
21	0x3e52c013	0.20581083
22	0x3d71108b	0.058853667
23	0x3db68668	0.08912355
24	0xbd73c65d	-0.059515346
25	0xbd6721fb	-0.05642889
26	0x3e290985	0.16507538
27	0x3ba23c31	0.004951023
28	0xbebed852	-0.37274414
29	0x3e1c0a70	0.15238357
30	0xbd3108f2	-0.04322142
31	0x3e1be308	0.15223324
32	0xbb0ee80d	-0.0021805794
33	0xbd875bee	-0.06609331
34	0x3defd7ff	0.1171112
35	0xbd591cb2	-0.05300588
36	0xbe7f302b	-0.24920718
37	0x3d043cf8	0.032284707
38	0x3aed31f4	0.0018096552
39	0xbd440caa	-0.04786364
40	0xbccb304f	-0.024803309
41	0x3d47b09f	0.048752423
42	0x3d847532	0.06467666
43	0x3d188db0	0.0372445
44	0x3ca31e86	0.019912016
45	0xbd9d2163	-0.07672384
46	0x3d789965	0.060693163
47	0x3d8062d5	0.06268851
48	0x3c6cb93a	0.014448458
49	0x3da5a85d	0.08088753
50	0x3e0b077c	0.13577074
51	0x3ca31b5f	0.019910512
52	0xbde91ab2	-0.11382045
53	0x3d96ff6e	0.07372938
54	0x3cf7950e	0.030222442
55	0xbc814909	-0.015781896
56	0x3b006a2e	0.0019594538
57	0xbda379e1	-0.07982231
58	0x3c8be116	0.017075103
59	0xbe3fa3c9	-0.18714823
60	0xbe755e59	-0.23961772
61	0x3daaed54	0.08346048
62	0x3ce92542	0.028460149
63	0x3de445d8	0.11146134
64	0x3c346186	0.0110095795
65	0xbdde954c	-0.1086832
66	0x3cb27c7d	0.021787876
67	0x3ced47f4	0.028964974
68	0x3dcb76e2	0.099347845
69	0x3e0293f2	0.12751749
70	0x3d628f74	0.05531259
71	0x3dfcac97	0.123376064
72	0x3de047dc	0.10951206
73	0xbd08ac67	-0.03336754
74	0xbdd0423f	-0.101688854
75	0xbd5e4d91	-0.05427319
76	0x3dcae2be	0.09906529
77	0x3d978c8d	0.07399855
78	0x3d322a49	0.043497358
79	0xbd5b183c	-0.05348991
80	0xbdb3bac9	-0.08775861
81	0xbdd4a9d0	-0.10383952
82	0x3c8378f9	0.016048895
83	0xbd6abf01	-0.05731106
84	0x3e0c9adb	0.13730948
85	0xbdbc0ea2	-0.091824785
86	0xbe367901	-0.17819597
87	0x3d9d155f	0.07670092
88	0x3d92e22b	0.07172044
89	0x3cf4d72c	0.029887758
90	0x3dbaedea	0.0912741
91	0x3c243fcf	0.010024979
92	0xbd76f30b	-0.060290378
93	0xbcd67d59	-0.026182817
94	0x3cd2540d	0.025674844
95	0x3e0a44d7	0.13502823
96	0x3de796cf	0.11308061
97	0xbe505211	-0.20343806
98	0x3e246441	0.16053869
99	0x3caebc4f	0.021330027
100	0xbcf2b43f	-0.029626964
101	0x3dadc6e4	0.08485201
102	0x3d733640	0.05937791
103	0xbdd447c4	-0.10365251
104	0x3e364901	0.17801286
105	0x3959ca4f	0.00020770098
106	0x3de62c9e	0.11238979
107	0xbc5049b5	-0.012712886
108	0x3cf73073	0.03017447
109	0x3c9f7f74	0.019469954
110	0xbdc44674	-0.0958375
111	0x3e61ae5f	0.22039174
112	0x3d02954e	0.03188067
113	0xbe8b9348	-0.27260804
114	0xbdc5b220	-0.09653115
115	0xbd23dca5	-0.040005345
116	0xbe00b4b8	-0.12568939
117	0x3d8ae4a2	0.067818895
118	0xba25e5df	-0.0006328504
119	0xbc960613	-0.018313443
120	0xbd6164c6	-0.055027746
121	0xbd19bb61	-0.037532214
122	0x3e3752af	0.17902635
123	0x3e6a62c3	0.22889237
124	0x3dbd2581	0.09235669
125	0xbe015e38	-0.12633598
126	0x3d37dc7a	0.044887997
127	0x3d734dc8	0.05940035
128	0x3dc1ef24	0.094694406
129	0xbdc22654	-0.09479967
130	0xbe34a811	-0.17642237
131	0xbca2bc5f	-0.019865213
132	0x3df3cf1b	0.119047366
133	0x3e20d2a6	0.15705356
134	0x3c2fb32d	0.010723871
135	0x3c40a573	0.011758196
136	0xbe0f4a53	-0.13993196
137	0x3db54a7e	0.08852099
138	0x3d1615e6	0.036641978
139	0x3d9b1010	0.07571423
140	0x3d44a55e	0.04800927
141	0xbccf1ae5	-0.025281379
142	0x3d7ce351	0.061740223
143	0x3dbdd204	0.09268573
144	0x3ddb4187	0.10705858
145	0xbc659f93	-0.014015096
146	0x3ce7d179	0.028298127
147	0xbd3bc4ac	-0.045841858
148	0x3d32a77e	0.043616764
149	0xbddc0521	-0.10743166
150	0xbee3c59a	-0.44486696
151	0x3d751bf2	0.059841104
152	0x3c944aba	0.018102039
153	0x3daeb4bf	0.08530568
154	0xbd4888ab	-0.04895846
155	0xbe03f9f3	-0.12888317
156	0xbbbc5811	-0.005747803
157	0x3dc2c39b	0.09509965
158	0xbd36bf26	-0.044615887
159	0xbe402a91	-0.18766238
160	0x3dd39028	0.1033023
161	0xbdeb319e	-0.11484073
162	0x3d60efad	0.054916073
163	0x3cf2a683	0.029620415
164	0xbe0bc714	-0.13650161
165	0xbdce3093	-0.100678585
166	0xbdb43ffa	-0.08801265
167	0x3cbdbdfd	0.023161883
168	0xbe16a413	-0.14711027
169	0xbde767f2	-0.11299123
170	0xbd5989f7	-0.05311009
171	0xbde9ce37	-0.114162855
172	0x3ccddb19	0.025128888
173	0x3d948947	0.07252746
174	0x3d6f2208	0.058382064
175	0x3d97b160	0.074068785
176	0x3d83a94c	0.06428775
177	0xbdfe5511	-0.12418569
178	0x3d523adf	0.051325675
179	0xbd6ba255	-0.05752786
180	0xbd78efe2	-0.060775645
181	0xbbb3facb	-0.0054925433
182	0x3d787409	0.060657535
183	0x3e6567db	0.22402899
184	0x3b52c251	0.0032159279
185	0x3c544101	0.012954951
186	0xbe6821c4	-0.2266913
187	0xbd610456	-0.054935776
188	0x3d966896	0.07344167
189	0xbd4ba5d3	-0.04971869
190	0x3d8991d0	0.06717265
191	0x3e003f1d	0.12524076
192	0x3d43484f	0.04767638
193	0xbd23eeb4	-0.040022567
194	0xbcc05036	-0.023475748
195	0xbd145700	-0.036215782
196	0xbd4f84b3	-0.05066366
197	0xbd821dce	-0.06353341
198	0xbd343af7	-0.044001546
199	0x3e4d09d8	0.20023286
200	0x3e5072f0	0.20356345
201	0x3df9d993	0.12199702
202	0x3d3948e5	0.045235533
203	0x3c26fadd	0.010191646
204	0x3e112dcd	0.14177628
205	0xbd29bdcc	-0.04144077
206	0x3d3e9139	0.046525214
207	0x3dc62260	0.09674525
208	0xbe031e57	-0.12804542
209	0x3d6b273d	0.057410467
210	0x3d03bb44	0.032161012
211	0x3c095afa	0.008383507
212	0xbe0e75aa	-0.13912073
213	0xbd9257f8	-0.07145685
214	0x3d9804de	0.07422803
215	0x3dadb758	0.08482236
216	0x3d4f4adb	0.050608497
217	0x3c829034	0.015937902
218	0x3d55842c	0.052128002
219	0x3db83d19	0.089960285
220	0x3dd5f71f	0.10447525
221	0x3d061dfd	0.032743443
222	0x3d115243	0.03547884
223	0xbdaee225	-0.085392274
224	0x3e205b4c	0.15659827
225	0x3df82b2a	0.12117608
226	0x3d8ab46a	0.067726925
227	0x3e199f87	0.15002261
228	0x3df4857c	0.119395226
229	0x3d9dc9ea	0.07704528
230	0x3d884ec3	0.066556476
231	0x3da57af8	0.08080095
232	0x3be32e79	0.00693303
233	0x3d19a1c1	0.037507776
234	0xbe3a17cf	-0.18173145
235	0xbca4f5ac	-0.020136677
236	0x3d07c464	0.033146277
237	0xba69c68c	-0.00089178304
238	0xbcbfaa27	-0.023396565
239	0x3cd3b445	0.025842795
240	0xbd1801de	-0.037111156
241	0x3cd9c74b	0.026584288
242	0xbe178269	-0.14795841
243	0xbd9dcfa9	-0.07705624
244	0x3e4a03e2	0.19728044
245	0x3dd483dd	0.103767134
246	0xbde8ed27	-0.11373358
247	0x3c3e0d9c	0.011599924
248	0xbccbdb56	-0.024884861
249	0x3c31a878	0.010843389
250	0x3d4c4347	0.04986885
251	0xbd4447a8	-0.0479199
252	0xbd81b93c	-0.06334159
253	0x3c7538cc	0.014967155
254	0xbd64c088	-0.055847675
255	0xbdb453f4	-0.08805075

fc2.bias f4 [128]
0	0xbc56e2c1	-0.013115586
1	0x3c988b9f	0.018621264
2	0x3c3d0516	0.011536857
3	0x3c8a762f	0.016902057
4	0x3bbfcf0a	0.0058535384
5	0xbc9622d5	-0.018327156
6	0x3d58e2ca	0.052950658
7	0xbd5de549	-0.05417374
8	0x3d33fa98	0.043940157
9	0xbd80c98e	-0.062884435
10	0x3d5c2e82	0.05375529
11	0xbd42f562	-0.047597297
12	0xbc8ef15d	-0.017449075
13	0xbd38c4cc	-0.045109555
14	0xbc477fc2	-0.012176456
15	0x3d854c02	0.06508638
16	0xbd19141d	-0.037372697
17	0x3cccac1a	0.024984408
18	0x3d610c2f	0.05494326
19	0xbb94ec5b	-0.0045447773
20	0x3d2bcf05	0.041945476
21	0xbb2f0945	-0.0026708406
22	0xbda5bd06	-0.08092694
23	0xbb99c3de	-0.0046925386
24	0xbd10a09b	-0.035309415
25	0x3caadc54	0.020857014
26	0x3cc4f454	0.024042286
27	0x3d53a540	0.051671267
28	0x3bc74bf4	0.0060820524
29	0x3d034161	0.032044772
30	0xbda2e7f5	-0.079543985
31	0xbca82494	-0.020525254
32	0x3d323e10	0.04351622
33	0xbddf2526	-0.108957574
34	0x3bbe3f53	0.0058058887
35	0xbc284d39	-0.010272318
36	0xbd071686	-0.032980464
37	0xbc6c7cb9	-0.014434033
38	0x3c9915b3	0.018687105
39	0xbc418cf6	-0.011813393
40	0x3da77d06	0.08178143
41	0x3c230c2c	0.0099516325
42	0xbd20e8e1	-0.03928459
43	0xbd8fd807	-0.07023626
44	0x3da9909d	0.08279536
45	0x3d234eda	0.03987012
46	0xbd66203a	-0.056183077
47	0x3b8da949	0.004323159
48	0x3cd072ce	0.025445368
49	0x3d2833bd	0.041064966
50	0xbcaa0213	-0.020752942
51	0x3b0a5775	0.0021109257
52	0x3b8a28e7	0.0042163017
53	0x3d03c348	0.032168657
54	0xbd2327af	-0.039832767
55	0xbcc876d8	-0.024470732
56	0xbd29098b	-0.041268867
57	0x3d9648ec	0.073381275
58	0xbd8fa11c	-0.07013151
59	0xbc668f26	-0.014072215
60	0x3c84439a	0.016145516
61	0xbd442f2a	-0.04789654
62	0x3a3f486e	0.00072968646
63	0x3cfc3603	0.030787474
64	0x3c93289b	0.017963698
65	0x3d6f116d	0.058366228
66	0x3d9e6bca	0.07735403
67	0xbd1f4683	-0.038885605
68	0x3d80e50f	0.062936895
69	0xbd3115d3	-0.043233704
70	0xbd503895	-0.05083521
71	0x3d13a1f1	0.03604311
72	0xbc32b254	-0.010906775
73	0xbdc95b00	-0.0983181
74	0x3d6cf8f4	0.057854608
75	0xbd50f351	-0.051013295
76	0xbd1f5fa0	-0.038909554
77	0xbb304418	-0.0026896056
78	0xbd1b841b	-0.037967782
79	0xbd0738b6	-0.03301307
80	0xbd32ae14	-0.043623045
81	0xbd4132ad	-0.04716747
82	0xbbe73637	-0.0070560235
83	0x3da504a8	0.08057529
84	0x3ba867ac	0.005139312
85	0x3be5e558	0.0070158653
86	0xbd481de6	-0.04885664
87	0xbcd29875	-0.025707463
88	0xbb9ed952	-0.004847684
89	0x3d646332	0.055758663
90	0xbca87021	-0.02056128
91	0x3c6a9b48	0.0143192485
92	0xbce60491	-0.02807835
93	0xbd91434e	-0.070929155
94	0x3bd7e52b	0.0065885982
95	0xbca9f998	-0.020748898
96	0x3c567cbf	0.013091265
97	0xbcb26f51	-0.021781595
98	0x3c1df334	0.009640504
99	0xbb9d9c17	-0.004809867
100	0x3cc3eb84	0.023916014
101	0x3b1cf7b6	0.0023951358
102	0xbcd9e1e6	-0.026596975
103	0x3b97bee2	0.0046309093
104	0xb93d326f	-0.00018043233
105	0xbd540d27	-0.051770356
106	0x3b200cb7	0.002442164
107	0x3ddf5156	0.109041855
108	0x3db7f04a	0.089813784
109	0xbd293069	-0.041305933
110	0xbc7fd109	-0.015613803
111	0xbbd7428f	-0.0065692137
112	0xbb24f324	-0.0025169337
113	0x3baaa5bf	0.0052077468
114	0x3db1fae3	0.08690431
115	0x3d346007	0.04403689
116	0xbbe84fac	-0.0070895758
117	0xbcd5efc4	-0.026115306
118	0xbda417c5	-0.08012346
119	0xbbafba57	-0.0053627896
120	0x3d39d76a	0.04537145
121	0x3cad834b	0.02118077
122	0x3cb63d21	0.022245945
123	0x3c1b852d	0.009492201
124	0x3d28aecf	0.041182335
125	0xbccbb2e1	-0.02486557
126	0xbc324c6b	-0.010882477
127	0x3d36506e	0.044510297

fc3.weight f4 [4, 128]
0	0xbcb8ab2c	-0.022542559
1	0xbb364504	-0.0027812133
2	0x3e98c45e	0.29837316
3	0x3e5a8cb4	0.21342736
4	0x3ab52c3e	0.0013822389
5	0x3dccaf55	0.099943794
6	0x3c792248	0.015205927
7	0xbd301e97	-0.042997923
8	0xbe9409c2	-0.28913695
9	0xbca45760	-0.020061195
10	0xbc112a6a	-0.00886021
11	0x3e274b03	0.16337208
12	0xbe10a274	-0.14124471
13	0x3dcd46f3	0.10023298
14	0x3df7a12e	0.120912895
15	0x3e0307b4	0.12795907
16	0xbe5d526e	-0.21613476
17	0xbbeaaa9e	-0.0071614524
18	0xbe4ebc4a	-0.20189014
19	0xbd2d9747	-0.042380597
20	0x3e7689fa	0.24076071
21	0xbde3ab2a	-0.11116631
22	0x3d76da40	0.060266733
23	0x3e228186	0.15869722
24	0x3d6e2d03	0.058148395
25	0xbe934828	-0.28765988
26	0xbc5d2297	-0.013497016
27	0x3e9e7c88	0.30954385
28	0x3e115e47	0.1419612
29	0xbda90e0b	-0.082546316
30	0x3e9eaff9	0.3099363
31	0x3ee8e57f	0.45487592
32	0xbe93b428	-0.28848386
33	0xbf17b0e0	-0.59254265
34	0x3e657a27	0.22409879
35	0xbe855db1	-0.26048043
36	0xbee43012	-0.44567925
37	0x3e2582ed	0.16163225
38	0x3cf0b765	0.029384324
39	0xbe8cd58e	-0.2750668
40	0x3d84e527	0.0648902
41	0x3ec14687	0.3774912
42	0xbf04516a	-0.5168673
43	0x3df50478	0.11963743
44	0xbddfbbb6	-0.10924475
45	0xbe802adf	-0.25032708
46	0xbd40d32b	-0.047076385
47	0x3f02a762	0.51036656
48	0xbe334d9a	-0.17510071
49	0xbe2d873e	-0.16946122
50	0x3e079840	0.13241673
51	0xbdcfa1e4	-0.101383
52	0xbe2f0df6	-0.1709517
53	0xbe43dcc5	-0.19127186
54	0x3d7928e1	0.06083
55	0x3cf77cab	0.030210814
56	0x3d945f02	0.07244684
57	0xbc981a9e	-0.01856738
58	0x3ed368c0	0.41290855
59	0x3e5d0ff8	0.21588123
60	0x3d5d64aa	0.05405108
61	0xbd0d6b0e	-0.034525923
62	0xbe080627	-0.13283597
63	0xbc8306eb	-0.01599451
64	0x3ee4d204	0.4469148
65	0x3dca1144	0.098665744
66	0xbd0cd810	-0.03438574
67	0xbf155e90	-0.58347416
68	0x3dddf36b	0.10837444
69	0xbeee3b65	-0.4652969
70	0x3df9c5e0	0.12195945
71	0x3ea39a86	0.3195383
72	0x3de7588b	0.11296185
73	0xbf00a5fa	-0.5025326
74	0xbcbc1839	-0.022960769
75	0xbe9e84b9	-0.30960634
76	0x3d5f62d0	0.054537594
77	0x3cf4f2bd	0.029900903
78	0x3e530b44	0.20609766
79	0x3e09cd51	0.13457228
80	0x3e0852d5	0.13312848
81	0x3e879cf8	0.26486945
82	0xbddece93	-0.10879245
83	0xbc4980b1	-0.012298749
84	0xbe40e57f	-0.18837546
85	0x3d95217e	0.07281779
86	0xbd272380	-0.04080534
87	0xbd95aa49	-0.0730787
88	0xbdbae655	-0.091259636
89	0xbe1b5260	-0.15168142
90	0x3dd1b5e7	0.10239773
91	0x3c54000c	0.012939464
92	0xbe4d71cb	-0.2006294
93	0xbe974a62	-0.29548937
94	0xbe3440e4	-0.17602879
95	0xbf0865ad	-0.53280145
96	0xb94dd47e	-0.00019629483
97	0x3c8f8ff6	0.0175247
98	0x3b3b801b	0.0028610292
99	0x3edfb3b6	0.43691796
100	0x3cf27c58	0.029600307
101	0xbe2a93ac	-0.16657895
102	0x3dc53431	0.09629095
103	0xbf0774d2	-0.5291263
104	0xbeb27029	-0.34851196
105	0xbe635c20	-0.22203112
106	0xbf004aae	-0.5011395
107	0x3d894770	0.06703079
108	0x3e2638c9	0.162326
109	0xbe730a48	-0.2373439
110	0x3e1b8d3a	0.15190592
111	0xbe47f12f	-0.19525598
112	0x3ede7793	0.43450603
113	0x3e0e56ca	0.13900295
114	0x3e26ec71	0.16301133
115	0x3ead65f9	0.3386686
116	0x3d9a820f	0.07544338
117	0xbe449772	-0.19198397
118	0x3eb13803	0.34613046
119	0x3c6632ee	0.0140502285
120	0xbe52326f	-0.20527051
121	0xbd32dbce	-0.043666653
122	0x3ca0c27a	0.019623984
123	0xbeae03c0	-0.33987236
124	0xbdf69bc3	-0.12041428
125	0xbd5baa0c	-0.053628966
126	0xbd8ae8b7	-0.06782668
127	0x3db69539	0.08915181
128	0x3e50313f	0.20331286
129	0xbd2311ef	-0.039812025
130	0x3e3ae3d4	0.18250972
131	0x3c3a3cc7	0.0113670295
132	0xbdfb041f	-0.122566454
133	0xbf34ba01	-0.7059632
134	0x3e1eefd9	0.15521182
135	0xbeaaab63	-0.33333883
136	0x3e6b0018	0.22949255
137	0xbf1146ac	-0.5674846
138	0xbe43ee3f	-0.19133852
139	0x3ec6dddf	0.3884115
140	0xbd2b0f15	-0.04176243
141	0x3d05ac3b	0.032634955
142	0x3cff32df	0.031152187
143	0x3d9583f6	0.0730056
144	0x3beb728a	0.007185285
145	0x3d3557ea	0.044273295
146	0x3df6466a	0.12025149
147	0xbcfad97e	-0.030621286
148	0x3e99535b	0.29946408
149	0xbccd31da	-0.025048185
150	0xbe4305b5	-0.19045146
151	0x3ea6cf1d	0.3257989
152	0xbe5314b7	-0.20613371
153	0x3eccf5b8	0.4003122
154	0x3df6c1a9	0.120486565
155	0x3dda66a4	0.106641084
156	0xbdf22718	-0.11823863
157	0x3ea6f4e1	0.32608703
158	0x3ea83f5b	0.32860836
159	0x3f14165b	0.5784661
160	0x3e934e98	0.287709
161	0x3cd32c64	0.025778003
162	0xbe7f880a	-0.24954239
163	0x3eb1072a	0.34575778
164	0x3dc606ec	0.09669289
165	0x3ed162a2	0.40895563
166	0xbde27521	-0.11057497
167	0x3d16897e	0.036752217
168	0xbe27ca94	-0.16385871
169	0xbe505973	-0.20346622
170	0x3e066206	0.1312333
171	0x3ea34210	0.3188634
172	0xbd2bd358	-0.0419496
173	0xbe3b0add	-0.18265863
174	0x3ec00cd1	0.37509778
175	0x3e8babad	0.27279416
176	0xbde2d3bd	-0.11075542
177	0xbe91c3e9	-0.2846978
178	0xbe76bcea	-0.24095502
179	0x3f2c6dad	0.6735485
180	0x3df7bff2	0.120971575
181	0xbdd1a92a	-0.102373436
182	0x3e040461	0.12892295
183	0xbe1e823f	-0.15479372
184	0x3d89b53a	0.06724019
185	0x3d3b8b83	0.045787346
186	0xbed52581	-0.41630176
187	0xbdc81ad7	-0.09770744
188	0x3f1a85eb	0.6036059
189	0xbde72204	-0.11285785
190	0xbec190fa	-0.3780592
191	0xbdf76f3c	-0.12081763
192	0x3e8efd18	0.2792747
193	0xbda61131	-0.08108748
194	0x3dabe8ba	0.083939984
195	0xbe946c0a	-0.28988677
196	0xbd60a14f	-0.054841336
197	0xbd3176ab	-0.04332606
198	0xbea67eb6	-0.32518548
199	0xbe030f0c	-0.12798709
200	0x3f26d9a1	0.65175825
201	0xbce8f593	-0.028437411
202	0x3edd37fc	0.43206775
203	0x3ec8901c	0.39172447
204	0x3e312c25	0.17301996
205	0xbdab82a7	-0.08374529
206	0xbe527eee	-0.20556232
207	0x3e39d2d0	0.18146825
208	0x3ddad2c9	0.10684735
209	0x3d0090fa	0.03138826
210	0xbf2e3f9c	-0.6806581
211	0x3c95e04a	0.018295426
212	0xbdcd44d5	-0.10022894
213	0x3d1a5458	0.037678093
214	0xbf4f11c7	-0.808865
215	0x3f1cdf44	0.61278176
216	0xbe0669fb	-0.13126366
217	0x3e11eaa0	0.14249659
218	0xbe2b16fc	-0.16707987
219	0xbcdf0489	-0.027223842
220	0x3e1789ae	0.14798614
221	0xbc56146d	-0.013066393
222	0xbde916c7	-0.113812976
223	0xbe1572d7	-0.14594589
224	0x3d9f4241	0.07776309
225	0x3e588d1f	0.21147583
226	0xbd5e0b86	-0.05421021
227	0x3d964e76	0.07339184
228	0x3ef0a206	0.46998614
229	0x3e380cca	0.17973629
230	0xbda7a7da	-0.08186312
231	0x3e997d73	0.29978523
232	0xbde56d19	-0.11202449
233	0x3c402b1e	0.01172903
234	0xbe140d14	-0.14458114
235	0xbdc46645	-0.09589819
236	0xbd9d0554	-0.07667032
237	0xbd9d7bb8	-0.07689613
238	0x3e3f623d	0.18689819
239	0x3de53cac	0.11193213
240	0x3e09f6a1	0.13472988
241	0xbbddb66c	-0.006766131
242	0xbdae0050	-0.08496153
243	0x3f017a83	0.50577563
244	0xbe020f4d	-0.1270115
245	0x3e8355f0	0.25651503
246	0xbe537535	-0.2065018
247	0xbd96139f	-0.07327961
248	0x3d0e8fde	0.03480517
249	0x3e5ac8bb	0.21365635
250	0xbe81401c	-0.25244224
251	0xbd590726	-0.052985333
252	0x3e133aa8	0.14377844
253	0x3e6f9f11	0.23400523
254	0x3db1feea	0.08691199
255	0xbd8ad79b	-0.06779405

fc3.bias f4 [4]
0	0x3cf614a5	0.030039141
1	0xbd5af3c7	-0.05345514
2	0xbbd9df0e	-0.0066489046
3	0xbd1ffcaf	-0.039059337
